data.pth (torch, 4671 bytes, 6 tensors)

l1.weight f4 [8, 36]
0.337887 1.1684515 -0.8337118 -0.81737363 -0.08580474 -0.60835713 0.6168577 0.739144
0.72335464 0.5473362 0.47414902 0.14391711 -0.026081584 -1.204146 1.4858522 0.41918248
-0.34868273 0.29870653 1.2752202 0.49623117 -0.3492516 0.17827399 0.4882506 -0.994516
-0.3487008 -0.05368788 0.39107105 0.7961858 0.5833078 0.400711 -0.81850666 0.25108162
0.8673099 0.23565756 -0.9345679 0.39229655 1.2119415 -0.5997347 0.6761125 -0.12242549
1.1123564 -0.29141065 0.31131956 -0.4457053 -0.3605287 -0.5022622 -0.29139504 0.062355798
-1.0662547 1.0712634 0.4932052 -0.28681904 -0.123126656 0.2765967 0.80071247 -0.29127148
-0.15644668 0.066177525 0.18503219 0.7601298 -0.11462323 -1.0598993 -0.2913472 1.0782045
-0.6942708 0.14262605 0.48371756 -1.0563748 -0.6656684 -1.0415906 0.5231156 -0.15153958
0.5901476 -1.2196854 0.19179055 0.65374297 -0.046082433 1.2859192 0.5834648 0.6181721
0.5200057 0.54036593 0.50470614 0.3690147 0.15090488 0.6692354 0.6871223 0.35003412
0.64069974 0.32889795 -1.0320854 0.48560885 0.7038224 0.36833617 0.36992276 -0.36602116
0.635827 0.18735677 0.35999057 -0.26753196 0.92245585 0.28682268 -1.0323206 -0.5045281
0.54660195 -0.4352433 0.9978681 0.3792706 -0.39641318 0.054087564 -0.32610762 0.6821572
1.1153871 -0.23886427 -0.08863572 -0.35055116 -0.35058647 -0.35054946 0.073881276 -0.060763232
0.75556463 0.037226778 -0.21504426 0.039291624 -0.12864202 -0.1460959 0.52018696 -0.03874067
-0.036271427 0.115266345 -0.11602502 -0.3584306 -0.07332813 0.6370071 -0.055499557 -1.0312144
-0.34154996 -0.14614677 1.2924407 0.4168061 0.62977844 0.38999486 1.1311496 0.1434511
0.9294651 1.1700709 0.76373565 0.5247121 -0.29718283 0.091747336 0.6804695 0.6898692
0.818099 0.8428518 0.1865097 0.30070174 0.49111804 -0.86506087 -0.30196935 0.06530218
0.13577153 0.5772699 1.1903468 0.24038853 0.17340541 0.3084097 0.7167109 -0.3798592
0.15829378 0.5055633 0.16853906 0.6700178 0.20532465 0.43587026 -0.8649435 0.32096305
-0.059909895 0.39158955 -0.27731052 0.3322038 0.02761589 -0.80967736 -0.76797247 -0.8097371
0.07773886 0.5187319 0.42330632 0.40599018 0.5759405 0.4179785 0.509258 0.3254776
0.4610483 0.23226391 1.0329827 0.46622095 0.46948937 0.44548452 -0.61767507 0.67727333
0.40889105 0.21540156 0.31265733 -0.8597075 0.46372253 0.3416794 0.57196736 -0.8597929
1.0089308 0.33800408 -0.74063665 -0.005304365 0.8822578 0.0051151407 0.6212086 0.39054033
0.48051322 0.6142012 0.6300338 0.8241046 0.82617986 0.3628302 -0.18708472 -0.4040755
-0.3192612 -0.48070967 -0.40640482 -0.018655743 0.7136958 -0.9246329 -0.83444476 -0.38061994
0.33130923 0.017809603 0.0021921038 -0.30216503 0.23739351 0.017061342 -0.091227256 1.0862088
0.25816643 0.8889992 -0.3250113 -0.9739039 -0.50651795 0.039935134 1.0600287 0.99829686
-0.62659585 1.0523642 0.18117505 -0.024677005 0.3500457 -0.7946643 -0.42293742 -0.88591623
00000000: 86ff ac3e d28f 953f 236e 55bf 663f 51bf
00000010: 65ba afbd 4bbd 1bbf 63ea 1d3f 8b38 3d3f
00000020: c52d 393f 3a1e 0c3f a9c3 f23e 025f 133e
00000030: 0ca9 d5bc 7521 9abf 6830 be3f 169f d63e
00000040: 8b86 b2be 10f0 983e 6a3a a33f 0312 fe3e
00000050: 1bd1 b2be 758d 363e fcfb f93e 9a98 7ebf
00000060: e988 b2be d3e7 5bbd 773a c83e d5d2 4b3f
00000070: a953 153f fe29 cd3e a789 51bf c58d 803e
00000080: 0608 5e3f 3750 713e d83f 6fbf 18db c83e
00000090: e620 9b3f 3788 19bf b515 2d3f 37ba fabd
000000a0: b261 8e3f c733 95be 4765 9f3e 7c33 e4be
000000b0: 3897 b8be 4194 00bf bb31 95be cb68 7f3d
000000c0: 097b 88bf 291f 893f 6485 fc3e f2d9 92be
000000d0: d429 fcbd 159e 8d3e 7efb 4c3f 8921 95be
000000e0: 8f33 20be 1588 873d 1479 3d3e de97 423f
000000f0: 96bf eabd c8aa 87bf 762b 95be 9b02 8a3f
00000100: bbbb 31bf 900c 123e d4a9 f73e 4a37 87bf
00000110: 3f69 2abf d752 85bf e7ea 053f 312d 1bbe
00000120: ea13 173f a71e 9cbf be64 443e b35b 273f
00000130: efc0 3cbd 0099 a43f f35d 153f 8740 1e3f
00000140: 181f 053f 6c55 0a3f 6c34 013f 7fef bc3e
00000150: cf86 1a3e 0353 2b3f 3fe7 2f3f ac37 b33e
00000160: e604 243f 5065 a83e 601b 84bf b9a1 f83e
00000170: b42d 343f 8f96 bc3e 8466 bd3e 2067 bbbe
00000180: 8fc5 223f 74da 3f3e af50 b83e f3f9 88be
00000190: 1126 6c3f 6cda 923e 1523 84bf c128 01bf
000001a0: 1bee 0b3f 36d8 debe 4974 7f3f c22f c23e
000001b0: abf6 cabe ec8a 5d3d 94f7 a6be dba1 2e3f
000001c0: 01c5 8e3f d698 74be a586 b5bd 717b b3be
000001d0: 1280 b3be 387b b3be 114f 973d dee2 78bd
000001e0: af6c 413f 1b7b 183d 9034 5cbe 41f0 203d
000001f0: bcba 03be 2a9a 15be f92a 053f 89ae 1ebd
00000200: 5991 14bd c310 ec3d 879e edbd 3784 b7be
00000210: 0f2d 96bd e612 233f 8153 63bd d5fe 83bf
00000220: a3df aebe 80a7 15be b26e a53f 9c67 d53e
00000230: 2939 213f 68ad c73e 83c9 903f d8e4 123e
00000240: 6df1 6d3f e2c4 953f 2e84 433f 8853 063f
00000250: 5928 98be 07e6 bb3d 4033 2e3f 459b 303f
00000260: f06e 513f 23c5 573f 66fc 3e3e 94f5 993e
00000270: d373 fb3e a174 5dbf ba9b 9abe 26bd 853d
00000280: b107 0b3e f6c7 133f 495d 983f 6928 763e
00000290: 3091 313e e0e7 9d3e 5e7a 373f e87c c2be
000002a0: c417 223e 996c 013f 8195 2c3e 4986 2b3f
000002b0: a040 523e 632a df3e f06c 5dbf 4555 a43e
000002c0: 1464 75bd 6d7e c83e a5fb 8dbe 9e16 aa3e
000002d0: b83a e23c 0447 4fbf d899 44bf ee4a 4fbf
000002e0: 8d35 9f3d 9dcb 043f 9bbb d83e f2dd cf3e
000002f0: d670 133f 4701 d63e bb5e 023f 00a5 a63e
00000300: 860e ec3e 97d6 6d3e c738 843f 83b4 ee3e
00000310: e960 f03e 8c16 e43e f41f 1ebf c961 2d3f
00000320: 2b5a d13e 3a92 5c3e 9f14 a03e ca15 5cbf
00000330: 0a6d ed3e 9af0 ae3e 746c 123f 631b 5cbf
00000340: a524 813f df0e ad3e 5d9a 3dbf 3dd0 adbb
00000350: a6db 613f e99c a73b 8707 1f3f e7f4 c73e
00000360: d405 f63e 4a3c 1d3f e549 213f 85f8 523f
00000370: 8680 533f e1c4 b93e 2393 3fbe fce2 cebe
00000380: 3476 a3be 941f f6be 4b14 d0be eed3 98bc
00000390: c5b4 363f beb4 6cbf 2c9e 55bf 9ee0 c2be
000003a0: 5da1 a93e 72e5 913c 66a9 0f3b 60b5 9abe
000003b0: 4917 733e 3ac4 8b3c 5bd5 babd e408 8b3f
000003c0: 642e 843e 7495 633f e267 a6be c451 79bf
000003d0: 29ab 01bf 0693 233d 05af 873f 6290 7f3f
000003e0: 9668 20bf dfb3 863f f485 393e 6e27 cabc
000003f0: 3139 b33e 1f6f 4bbf 418b d8be 68cb 62bf

l1.bias f4 [8]
0.95695573 0.9856174 1.0783879 0.74688894 1.1621726 0.782139 0.9128971 0.65347093
00000000: 0dfb 743f 6c51 7c3f 9d08 8a3f 1d34 3f3f
00000010: 12c2 943f 433a 483f a0b3 693f df49 273f

l2.weight f4 [8, 8]
-0.19865386 -0.3274521 -0.24665575 0.12045792 -0.26551968 0.05404243 -0.056952924 -0.2221683
-0.5424983 0.7373447 -0.25212252 0.9525583 0.35573322 -0.9337466 1.0921124 -1.2942103
0.79521656 -1.3287284 1.9743185 0.23976593 1.5312544 1.9180267 0.8145462 -1.0889533
1.6320287 0.81552714 1.2217336 -0.37608224 0.9508785 1.6412501 -1.1592106 -0.15615517
0.7066481 -0.2414523 -1.158604 1.2384878 1.2810242 -0.71029854 1.454656 -0.30664378
0.966054 1.1511384 -0.23848131 -0.8963301 1.1121404 -1.3879306 0.44559988 1.4259974
-1.5990957 1.1528178 1.4158027 0.3146802 -0.11025739 -0.20316277 0.63564557 0.8824916
-0.032021884 0.620727 -0.15639424 1.3779775 -1.085035 0.77473533 0.49167916 1.0546744
00000000: eb6b 4bbe cda7 a7be 5393 7cbe a4b2 f63d
00000010: 32f2 87be 985b 5d3d 7847 69bd 1680 63be
00000020: 2be1 0abf 9fc2 3c3f 3416 81be dcda 733f
00000030: aa22 b63e 040a 6fbf 57ca 8b3f afa8 a5bf
00000040: 5093 4b3f c613 aabf 78b6 fc3f 3385 753e
00000050: 2500 c43f e681 f53f 1a86 503f d262 8bbf
00000060: 51e6 d03f 63c6 503f c461 9c3f da8d c0be
00000070: c66c 733f 7c14 d23f 0361 94bf 24e7 1fbe
00000080: e4e6 343f 463f 77be 234d 94bf c586 9e3f
00000090: 9af8 a33f 20d6 35bf 2b32 ba3f 6a00 9dbe
000000a0: 514f 773f 8158 933f 7234 74be e475 65bf
000000b0: 9e5a 8e3f b6a7 b1bf ab25 e43e 1587 b63f
000000c0: 2baf ccbf 898f 933f 0639 b53f c31d a13e
000000d0: a0ce e1bd e709 50be abb9 223f f8ea 613f
000000e0: 6129 03bd f7e7 1e3f d025 20be 9161 b03f
000000f0: 6de2 8abf 0e55 463f 5fbd fb3e 92ff 863f

l2.bias f4 [8]
-0.29966417 0.39809763 0.79021126 0.72499716 0.52964073 0.5456821 0.23281662 0.4517716
00000000: 956d 99be 74d3 cb3e 494b 4a3f 6a99 393f
00000010: 8996 073f d2b1 0b3f 7b67 6e3e 9b4e e73e

l3.weight f4 [16, 8]
0.1970335 -0.5592069 -1.5127728 -0.025987655 -1.9000708 -0.10511452 0.68099827 0.56229
-0.09492773 -0.72690684 -0.35929984 0.6864877 -1.0898032 -0.060607716 -0.50631386 0.23498122
0.08075884 -0.9173094 0.49865586 0.08780612 -1.5713372 -0.65878844 0.31532085 -0.7491569
-0.063329756 0.104523756 -1.0675111 0.15659706 0.61090016 0.1301575 -0.643349 -0.26992217
0.22402695 0.61511457 0.18373974 -1.3541566 0.47377157 -1.4036225 -0.0935798 -0.18649155
-0.04423955 0.35821807 -0.11126433 -0.24283394 -0.09331618 0.41787958 0.30825037 -1.7745832
0.23147967 -0.19920321 -1.2721428 -1.4674846 -0.26671678 0.29226825 0.7781052 0.11271959
-0.3076025 -1.2094923 -1.6018794 0.19592783 -0.598485 0.7406869 -0.11057979 -0.15619376
0.22111157 0.6476618 -1.4897689 -1.1686035 0.39706156 -0.8935671 0.05657018 0.6129114
-0.32856736 -0.6627038 -0.2548598 -1.7197919 0.63912433 -0.17304188 -0.259829 0.32593662
0.15160361 -0.39994508 0.60258114 0.8917589 -1.157201 -1.2988377 -2.087776 -1.1107571
0.07699573 0.07695994 -0.0434005 0.23510739 0.372798 0.55902267 -2.219211 -1.9883825
0.2880678 0.41974923 0.31863037 -0.88168186 0.81891155 -0.32165295 -1.8615369 -0.7167005
-0.28463498 -0.21042047 0.40907305 -0.045945622 0.0069924276 -1.5322739 -1.0767952 0.3400657
-0.32279503 -1.4606637 0.17515177 0.71327513 -0.1394937 0.16482489 -0.8591803 -1.9022609
-0.10739708 0.25310755 -0.36394316 -0.27898788 -0.59050363 -0.7071994 0.49480197 0.32820392
00000000: 26c3 493e 2f28 0fbf 8aa2 c1bf 10e4 d4bc
00000010: 8535 f3bf 4846 d7bd e755 2e3f 3df2 0f3f
00000020: 7869 c2bd 9116 3abf 26f6 b7be a8bd 2f3f
00000030: ac7e 8bbf cc3f 78bd c99d 01bf eb9e 703e
00000040: e464 a53d cad4 6abf d24f ff3e b2d3 b33d
00000050: 9421 c9bf 5ca6 28bf bc71 a13e bfc8 3fbf
00000060: 08b3 81bd 8d10 d63d 34a4 88bf fb5a 203e
00000070: f463 1c3f 0248 053e 85b2 24bf 3d33 8abe
00000080: 5267 653e 2678 1d3f 4526 3c3e 0155 adbf
00000090: 3092 f23e e7a9 b3bf c4a6 bfbd a4f7 3ebe
000000a0: 8834 35bd 5c68 b73e 8ede e3bd 76a9 78be
000000b0: 8e1c bfbd 50f4 d53e fed2 9d3e 8b25 e3bf
000000c0: 0209 6d3e edfb 4bbe 93d5 a2bf 89d6 bbbf
000000d0: 1a8f 88be 2fa4 953e e731 473f 87d9 e63d
000000e0: 137e 9dbe a5d0 9abf 620a cdbf 4ea1 483e
000000f0: 5036 19bf a89d 3d3f a877 e2bd 42f1 1fbe
00000100: 126b 623e 2acd 253f bfb0 bebf cd94 95bf
00000110: a74b cb3e d0c0 64bf 22b6 673d c3e7 1c3f
00000120: fb39 a8be f5a6 29bf fc7c 82be 2422 dcbf
00000130: a79d 233f e431 31be 4f08 85be 2ae1 a63e
00000140: fa3d 1b3e 9ac5 ccbe c242 1a3f 504a 643f
00000150: 2a1f 94bf 5040 a6bf 1f9e 05c0 4a2d 8ebf
00000160: f0af 9d3d 2c9d 9d3d b9c4 31bd febf 703e
00000170: 61df be3e 1c1c 0f3f 8e07 0ec0 5183 febf
00000180: 9f7d 933e 5fe9 d63e 8523 a33e e7b5 61bf
00000190: 30a4 513f b2af a4be d746 eebf af79 37bf
000001a0: adbb 91be 7778 57be 0672 d13e 7a31 3cbd
000001b0: bc20 e53b 8d21 c4bf 6dd4 89bf 171d ae3e
000001c0: 6445 a5be 07f7 babf fc5a 333e 3399 363f
000001d0: 70d7 0ebe dbc7 283e 3df3 5bbf 497d f3bf
000001e0: 00f3 dbbd 5097 813e c256 babe 80d7 8ebe
000001f0: 3f2b 17bf 050b 35bf af56 fd3e 580a a83e

l3.bias f4 [16]
-0.19654815 0.077866785 0.5258544 -0.22255592 -0.33146003 -0.3317896 -0.055873986 0.23314174
-0.2899667 0.15787843 0.24393721 -0.067236364 0.019559018 -0.03702675 0.24995078 -0.07688694
00000000: eb43 49be 9f78 9f3d 659e 063f b3e5 63be
00000010: 21b5 a9be 54e0 a9be 1fdc 64bd b5bc 6e3e
00000020: 8476 94be e2aa 213e adca 793e 38b3 89bd
00000030: 3c3a a03c 5da9 17bd 19f3 7f3e e676 9dbd
